…
1<00:00, 32.50it/s, eval_psnr=17.1, total_loss=0.00812, train_psnr=22.3]    Epoch 4:  96%|█████████▌| 48/50 [00:01<00:00, 32.50it/s, eval_psnr=17.1, total_loss=0.00812, train_psnr=22.3]    Epoch 4:  96%|█████████▌| 48/50 [00:01<00:00, 32.50it/s, eval_psnr=17.1, total_loss=0.00815, train_psnr=22.2]    Epoch 4: 100%|██████████| 50/50 [00:01<00:00, 32.47it/s, eval_psnr=17.1, total_loss=0.00815, train_psnr=22.2]

    ArtifactRemoval(
      (backbone_net): UNet(
        (Maxpool): MaxPool2d(kernel_size=2, stride=2, padding=0, dilation=1, ceil_mode=False)
        (Conv1): Sequential(
          (0): Conv2d(3, 64, kernel_size=(3, 3), stride=(1, 1), padding=(1, 1))
          (1): ReLU(inplace=True)
          (2): Conv2d(64, 64, kernel_size=(3, 3), stride=(1, 1), padding=(1, 1))
          (3): ReLU(inplace=True)
        )
        (Conv2): Sequential(
          (0): Conv2d(64, 128, kernel_size=(3, 3), stride=(1, 1), padding=(1, 1))
          (1): ReLU(inplace=True)
          (2): Conv2d(128, 128, kernel_size=(3, 3), stride=(1, 1), padding=(1, 1))
          (3): ReLU(inplace=True)
        )
        (Conv3): Sequential(
          (0): Conv2d(128, 256, kernel_size=(3, 3), stride=(1, 1), padding=(1, 1))
          (1): ReLU(inplace=True)
          (2): Conv2d(256, 256, kernel_size=(3, 3), stride=(1, 1), padding=(1, 1))
          (3): ReLU(inplace=True)
        )
        (Up3): Sequential(
          (0): Upsample(scale_factor=2.0, mode='nearest')
          (1): Conv2d(256, 128, kernel_size=(3, 3), stride=(1, 1), padding=(1, 1))
          (2): ReLU(inplace=True)
        )
        (Up_conv3): Sequential(
          (0): Conv2d(256, 128, kernel_size=(3, 3), stride=(1, 1), padding=(1, 1))
          (1): ReLU(inplace=True)
          (2): Conv2d(128, 128, kernel_size=(3, 3), stride=(1, 1), padding=(1, 1))
          (3): ReLU(inplace=True)
        )
        (Up2): Sequential(
          (0): Upsample(scale_factor=2.0, mode='nearest')
          (1): Conv2d(128, 64, kernel_size=(3, 3), stride=(1, 1), padding=(1, 1))
          (2): ReLU(inplace=True)
        )
        (Up_conv2): Sequential(
          (0): Conv2d(128, 64, kernel_size=(3, 3), stride=(1, 1), padding=(1, 1))
          (1): ReLU(inplace=True)
          (2): Conv2d(64, 64, kernel_size=(3, 3), stride=(1, 1), padding=(1, 1))
          (3): ReLU(inplace=True)
        )
        (Conv_1x1): Conv2d(64, 3, kernel_size=(1, 1), stride=(1, 1))
      )
    )



.. GENERATED FROM PYTHON SOURCE LINES 172-177

Test the network
--------------------------------------------
We can now test the trained network using the :meth:`deepinv.test` function.

The testing function will compute test_psnr metrics and plot and save the results.

.. GENERATED FROM PYTHON SOURCE LINES 177-191

.. code-block:: Python

…
